nohup: ignoring input
shapes: 
bboxes.shape=torch.Size([64, 4, 11, 4]),
masks.shape=torch.Size([64, 4, 64, 64]),
rgbs.shape=torch.Size([64, 4, 3, 64, 64]),
============================================
152
ViT has 94517760 parameters
vit=ViT(
  (patch_projection): Sequential(
    (0): LayerNorm((12288,), eps=1e-05, elementwise_affine=True)
    (1): Linear(in_features=12288, out_features=768, bias=True)
  )
  (pos_emb): PositionalEncoding()
  (encoderBlocks): Sequential(
    (0): EncoderBlock(
      (ln_att): LayerNorm((768,), eps=1e-06, elementwise_affine=True)
      (attn): MultiHeadAttention(
        (q): Linear(in_features=768, out_features=768, bias=True)
        (k): Linear(in_features=768, out_features=768, bias=True)
        (v): Linear(in_features=768, out_features=768, bias=True)
        (out_proj): Linear(in_features=768, out_features=768, bias=True)
      )
      (ln_mlp): LayerNorm((768,), eps=1e-06, elementwise_affine=True)
      (mlp): MLP(
        (mlp): Sequential(
          (0): Linear(in_features=768, out_features=3072, bias=True)
          (1): GELU(approximate='none')
          (2): Linear(in_features=3072, out_features=768, bias=True)
        )
      )
    )
    (1): EncoderBlock(
      (ln_att): LayerNorm((768,), eps=1e-06, elementwise_affine=True)
      (attn): MultiHeadAttention(
        (q): Linear(in_features=768, out_features=768, bias=True)
        (k): Linear(in_features=768, out_features=768, bias=True)
        (v): Linear(in_features=768, out_features=768, bias=True)
        (out_proj): Linear(in_features=768, out_features=768, bias=True)
      )
      (ln_mlp): LayerNorm((768,), eps=1e-06, elementwise_affine=True)
      (mlp): MLP(
        (mlp): Sequential(
          (0): Linear(in_features=768, out_features=3072, bias=True)
          (1): GELU(approximate='none')
          (2): Linear(in_features=3072, out_features=768, bias=True)
        )
      )
    )
    (2): EncoderBlock(
      (ln_att): LayerNorm((768,), eps=1e-06, elementwise_affine=True)
      (attn): MultiHeadAttention(
        (q): Linear(in_features=768, out_features=768, bias=True)
        (k): Linear(in_features=768, out_features=768, bias=True)
        (v): Linear(in_features=768, out_features=768, bias=True)
        (out_proj): Linear(in_features=768, out_features=768, bias=True)
      )
      (ln_mlp): LayerNorm((768,), eps=1e-06, elementwise_affine=True)
      (mlp): MLP(
        (mlp): Sequential(
          (0): Linear(in_features=768, out_features=3072, bias=True)
          (1): GELU(approximate='none')
          (2): Linear(in_features=3072, out_features=768, bias=True)
        )
      )
    )
    (3): EncoderBlock(
      (ln_att): LayerNorm((768,), eps=1e-06, elementwise_affine=True)
      (attn): MultiHeadAttention(
        (q): Linear(in_features=768, out_features=768, bias=True)
        (k): Linear(in_features=768, out_features=768, bias=True)
        (v): Linear(in_features=768, out_features=768, bias=True)
        (out_proj): Linear(in_features=768, out_features=768, bias=True)
      )
      (ln_mlp): LayerNorm((768,), eps=1e-06, elementwise_affine=True)
      (mlp): MLP(
        (mlp): Sequential(
          (0): Linear(in_features=768, out_features=3072, bias=True)
          (1): GELU(approximate='none')
          (2): Linear(in_features=3072, out_features=768, bias=True)
        )
      )
    )
    (4): EncoderBlock(
      (ln_att): LayerNorm((768,), eps=1e-06, elementwise_affine=True)
      (attn): MultiHeadAttention(
        (q): Linear(in_features=768, out_features=768, bias=True)
        (k): Linear(in_features=768, out_features=768, bias=True)
        (v): Linear(in_features=768, out_features=768, bias=True)
        (out_proj): Linear(in_features=768, out_features=768, bias=True)
      )
      (ln_mlp): LayerNorm((768,), eps=1e-06, elementwise_affine=True)
      (mlp): MLP(
        (mlp): Sequential(
          (0): Linear(in_features=768, out_features=3072, bias=True)
          (1): GELU(approximate='none')
          (2): Linear(in_features=3072, out_features=768, bias=True)
        )
      )
    )
    (5): EncoderBlock(
      (ln_att): LayerNorm((768,), eps=1e-06, elementwise_affine=True)
      (attn): MultiHeadAttention(
        (q): Linear(in_features=768, out_features=768, bias=True)
        (k): Linear(in_features=768, out_features=768, bias=True)
        (v): Linear(in_features=768, out_features=768, bias=True)
        (out_proj): Linear(in_features=768, out_features=768, bias=True)
      )
      (ln_mlp): LayerNorm((768,), eps=1e-06, elementwise_affine=True)
      (mlp): MLP(
        (mlp): Sequential(
          (0): Linear(in_features=768, out_features=3072, bias=True)
          (1): GELU(approximate='none')
          (2): Linear(in_features=3072, out_features=768, bias=True)
        )
      )
    )
    (6): EncoderBlock(
      (ln_att): LayerNorm((768,), eps=1e-06, elementwise_affine=True)
      (attn): MultiHeadAttention(
        (q): Linear(in_features=768, out_features=768, bias=True)
        (k): Linear(in_features=768, out_features=768, bias=True)
        (v): Linear(in_features=768, out_features=768, bias=True)
        (out_proj): Linear(in_features=768, out_features=768, bias=True)
      )
      (ln_mlp): LayerNorm((768,), eps=1e-06, elementwise_affine=True)
      (mlp): MLP(
        (mlp): Sequential(
          (0): Linear(in_features=768, out_features=3072, bias=True)
          (1): GELU(approximate='none')
          (2): Linear(in_features=3072, out_features=768, bias=True)
        )
      )
    )
    (7): EncoderBlock(
      (ln_att): LayerNorm((768,), eps=1e-06, elementwise_affine=True)
      (attn): MultiHeadAttention(
        (q): Linear(in_features=768, out_features=768, bias=True)
        (k): Linear(in_features=768, out_features=768, bias=True)
        (v): Linear(in_features=768, out_features=768, bias=True)
        (out_proj): Linear(in_features=768, out_features=768, bias=True)
      )
      (ln_mlp): LayerNorm((768,), eps=1e-06, elementwise_affine=True)
      (mlp): MLP(
        (mlp): Sequential(
          (0): Linear(in_features=768, out_features=3072, bias=True)
          (1): GELU(approximate='none')
          (2): Linear(in_features=3072, out_features=768, bias=True)
        )
      )
    )
    (8): EncoderBlock(
      (ln_att): LayerNorm((768,), eps=1e-06, elementwise_affine=True)
      (attn): MultiHeadAttention(
        (q): Linear(in_features=768, out_features=768, bias=True)
        (k): Linear(in_features=768, out_features=768, bias=True)
        (v): Linear(in_features=768, out_features=768, bias=True)
        (out_proj): Linear(in_features=768, out_features=768, bias=True)
      )
      (ln_mlp): LayerNorm((768,), eps=1e-06, elementwise_affine=True)
      (mlp): MLP(
        (mlp): Sequential(
          (0): Linear(in_features=768, out_features=3072, bias=True)
          (1): GELU(approximate='none')
          (2): Linear(in_features=3072, out_features=768, bias=True)
        )
      )
    )
    (9): EncoderBlock(
      (ln_att): LayerNorm((768,), eps=1e-06, elementwise_affine=True)
      (attn): MultiHeadAttention(
        (q): Linear(in_features=768, out_features=768, bias=True)
        (k): Linear(in_features=768, out_features=768, bias=True)
        (v): Linear(in_features=768, out_features=768, bias=True)
        (out_proj): Linear(in_features=768, out_features=768, bias=True)
      )
      (ln_mlp): LayerNorm((768,), eps=1e-06, elementwise_affine=True)
      (mlp): MLP(
        (mlp): Sequential(
          (0): Linear(in_features=768, out_features=3072, bias=True)
          (1): GELU(approximate='none')
          (2): Linear(in_features=3072, out_features=768, bias=True)
        )
      )
    )
    (10): EncoderBlock(
      (ln_att): LayerNorm((768,), eps=1e-06, elementwise_affine=True)
      (attn): MultiHeadAttention(
        (q): Linear(in_features=768, out_features=768, bias=True)
        (k): Linear(in_features=768, out_features=768, bias=True)
        (v): Linear(in_features=768, out_features=768, bias=True)
        (out_proj): Linear(in_features=768, out_features=768, bias=True)
      )
      (ln_mlp): LayerNorm((768,), eps=1e-06, elementwise_affine=True)
      (mlp): MLP(
        (mlp): Sequential(
          (0): Linear(in_features=768, out_features=3072, bias=True)
          (1): GELU(approximate='none')
          (2): Linear(in_features=3072, out_features=768, bias=True)
        )
      )
    )
    (11): EncoderBlock(
      (ln_att): LayerNorm((768,), eps=1e-06, elementwise_affine=True)
      (attn): MultiHeadAttention(
        (q): Linear(in_features=768, out_features=768, bias=True)
        (k): Linear(in_features=768, out_features=768, bias=True)
        (v): Linear(in_features=768, out_features=768, bias=True)
        (out_proj): Linear(in_features=768, out_features=768, bias=True)
      )
      (ln_mlp): LayerNorm((768,), eps=1e-06, elementwise_affine=True)
      (mlp): MLP(
        (mlp): Sequential(
          (0): Linear(in_features=768, out_features=3072, bias=True)
          (1): GELU(approximate='none')
          (2): Linear(in_features=3072, out_features=768, bias=True)
        )
      )
    )
  )
)/home/user/masroora1/VideoTracker/.venv/lib/python3.12/site-packages/torchvision/models/_utils.py:208: UserWarning: The parameter 'pretrained' is deprecated since 0.13 and may be removed in the future, please use 'weights' instead.
  warnings.warn(
/home/user/masroora1/VideoTracker/.venv/lib/python3.12/site-packages/torchvision/models/_utils.py:223: UserWarning: Arguments other than a weight enum or `None` for 'weights' are deprecated since 0.13 and may be removed in the future. The current behavior is equivalent to passing `weights=AlexNet_Weights.IMAGENET1K_V1`. You can also use `weights=AlexNet_Weights.DEFAULT` to get the most up-to-date weights.
  warnings.warn(msg)

Decoder has 9647616 parameters
decoder=ViT_Decoder(
  (patch_projection): Sequential(
    (0): LayerNorm((768,), eps=1e-05, elementwise_affine=True)
    (1): Linear(in_features=768, out_features=12288, bias=True)
  )
  (pos_emb): PositionalEncoding()
)
transformer has 104165376 parameters
Setting up [LPIPS] perceptual loss: trunk [alex], v[0.1], spatial [off]
Loading model from: /home/user/masroora1/VideoTracker/.venv/lib/python3.12/site-packages/lpips/weights/v0.1/alex.pth
Started Epoch 1/60...
  --> Running valdiation epoch
  --> Running train epoch
  0%| 
…
